…
ingle ph_01', 'ASO4619 ZL unk group ph, PS single ph intro_01']
train_data_all: (78473, 769)
Labels in train_data_all:  {0.0: 771, 1.0: 38417, 2.0: 17352, 3.0: 15900, 4.0: 6033}
--- 1.2362475395202637 seconds ---
Transformer(
  (pos_encoder): PositionalEncoding(
    (dropout): Dropout(p=0.4, inplace=False)
  )
  (transformer_encoder): TransformerEncoder(
    (layers): ModuleList(
      (0): TransformerEncoderLayer(
        (self_attn): MultiheadAttention(
          (out_proj): NonDynamicallyQuantizableLinear(in_features=768, out_features=768, bias=True)
        )
        (linear1): Linear(in_features=768, out_features=2048, bias=True)
        (dropout): Dropout(p=0.4, inplace=False)
        (linear2): Linear(in_features=2048, out_features=768, bias=True)
        (norm1): LayerNorm((768,), eps=1e-05, elementwise_affine=True)
        (norm2): LayerNorm((768,), eps=1e-05, elementwise_affine=True)
        (dropout1): Dropout(p=0.4, inplace=False)
        (dropout2): Dropout(p=0.4, inplace=False)
      )
      (1): TransformerEncoderLayer(
        (self_attn): MultiheadAttention(
          (out_proj): NonDynamicallyQuantizableLinear(in_features=768, out_features=768, bias=True)
        )
        (linear1): Linear(in_features=768, out_features=2048, bias=True)
        (dropout): Dropout(p=0.4, inplace=False)
        (linear2): Linear(in_features=2048, out_features=768, bias=True)
        (norm1): LayerNorm((768,), eps=1e-05, elementwise_affine=True)
        (norm2): LayerNorm((768,), eps=1e-05, elementwise_affine=True)
        (dropout1): Dropout(p=0.4, inplace=False)
        (dropout2): Dropout(p=0.4, inplace=False)
      )
      (2): TransformerEncoderLayer(
        (self_attn): MultiheadAttention(
          (out_proj): NonDynamicallyQuantizableLinear(in_features=768, out_features=768, bias=True)
        )
        (linear1): Linear(in_features=768, out_features=2048, bias=True)
        (dropout): Dropout(p=0.4, inplace=False)
        (linear2): Linear(in_features=2048, out_features=768, bias=True)
        (norm1): LayerNorm((768,), eps=1e-05, elementwise_affine=True)
        (norm2): LayerNorm((768,), eps=1e-05, elementwise_affine=True)
        (dropout1): Dropout(p=0.4, inplace=False)
        (dropout2): Dropout(p=0.4, inplace=False)
      )
      (3): TransformerEncoderLayer(
        (self_attn): MultiheadAttention(
          (out_proj): NonDynamicallyQuantizableLinear(in_features=768, out_features=768, bias=True)
        )
        (linear1): Linear(in_features=768, out_features=2048, bias=True)
        (dropout): Dropout(p=0.4, inplace=False)
        (linear2): Linear(in_features=2048, out_features=768, bias=True)
        (norm1): LayerNorm((768,), eps=1e-05, elementwise_affine=True)
        (norm2): LayerNorm((768,), eps=1e-05, elementwise_affine=True)
        (dropout1): Dropout(p=0.4, inplace=False)
        (dropout2): Dropout(p=0.4, inplace=False)
      )
      (4): TransformerEncoderLayer(
        (self_attn): MultiheadAttention(
          (out_proj): NonDynamicallyQuantizableLinear(in_features=768, out_features=768, bias=True)
        )
        (linear1): Linear(in_features=768, out_features=2048, bias=True)
        (dropout): Dropout(p=0.4, inplace=False)
        (linear2): Linear(in_features=2048, out_features=768, bias=True)
        (norm1): LayerNorm((768,), eps=1e-05, elementwise_affine=True)
        (norm2): LayerNorm((768,), eps=1e-05, elementwise_affine=True)
        (dropout1): Dropout(p=0.4, inplace=False)
        (dropout2): Dropout(p=0.4, inplace=False)
      )
      (5): TransformerEncoderLayer(
        (self_attn): MultiheadAttention(
          (out_proj): NonDynamicallyQuantizableLinear(in_features=768, out_features=768, bias=True)
        )
        (linear1): Linear(in_features=768, out_features=2048, bias=True)
        (dropout): Dropout(p=0.4, inplace=False)
        (linear2): Linear(in_features=2048, out_features=768, bias=True)
        (norm1): LayerNorm((768,), eps=1e-05, elementwise_affine=True)
        (norm2): LayerNorm((768,), eps=1e-05, elementwise_affine=True)
        (dropout1): Dropout(p=0.4, inplace=False)
        (dropout2): Dropout(p=0.4, inplace=False)
      )
    )
  )
  (decoder): Linear(in_features=768, out_features=5, bias=True)
)
Number of parameters: 33087749

Train Epoch: 1 accuracy: 0.33 
 precision: [0.0100361  0.62023782 0.29820051 0.50614019 0.12305179] 
 recall: [0.18028534 0.27969389 0.28745966 0.5054717  0.29968507] 
 f1: [0.01901375 0.38553309 0.29273159 0.50580572 0.17446685] 
 f1_avg: 0.36955427277429104


Validation Epoch: 1 accuracy: 0.39 
 precision: [0.         0.83424125 0.34508441 0.47808057 0.15003695] 
…
